…
ps': 200, 'log_interval_steps': 10, 'loss_fn': 'CE'}
2022-05-04 01:25:36,586 (train:304) INFO: config = config/mood_clf_config.yaml
2022-05-04 01:25:36,586 (train:304) INFO: resume = 
2022-05-04 01:25:36,586 (train:304) INFO: verbose = 1
2022-05-04 01:25:36,606 (train:314) INFO: Using GPU 0
2022-05-04 01:25:36,610 (train:339) INFO: The number of training files = 720
2022-05-04 01:25:36,610 (train:340) INFO: The number of evaluation files = 180
2022-05-04 01:25:46,262 (train:393) INFO: MoodRecog(
  (first_net): Conv1d1x1(80, 256, kernel_size=(1,), stride=(1,))
  (second_net): ModuleList(
    (0): BatchNorm1d(256, eps=1e-05, momentum=0.1, affine=True, track_running_stats=True)
    (1): MaxPool1d(kernel_size=5, stride=5, padding=0, dilation=1, ceil_mode=False)
    (2): ReLU(inplace=True)
    (3): Conv1d(256, 256, kernel_size=(3,), stride=(1,), padding=(1,))
    (4): BatchNorm1d(256, eps=1e-05, momentum=0.1, affine=True, track_running_stats=True)
    (5): MaxPool1d(kernel_size=5, stride=5, padding=0, dilation=1, ceil_mode=False)
    (6): ReLU(inplace=True)
    (7): Conv1d(256, 256, kernel_size=(3,), stride=(1,), padding=(1,))
    (8): BatchNorm1d(256, eps=1e-05, momentum=0.1, affine=True, track_running_stats=True)
    (9): MaxPool1d(kernel_size=5, stride=5, padding=0, dilation=1, ceil_mode=False)
    (10): ReLU(inplace=True)
    (11): Conv1d(256, 256, kernel_size=(3,), stride=(1,), padding=(1,))
    (12): ReLU(inplace=True)
  )
  (lstm): LSTM(256, 256, num_layers=2, batch_first=True, bidirectional=True)
  (linear): ModuleList(
    (0): Linear(in_features=1024, out_features=256, bias=True)
    (1): BatchNorm1d(256, eps=1e-05, momentum=0.1, affine=True, track_running_stats=True)
    (2): ReLU(inplace=True)
    (3): Linear(in_features=256, out_features=4, bias=True)
    (4): BatchNorm1d(4, eps=1e-05, momentum=0.1, affine=True, track_running_stats=True)
    (5): Softmax(dim=1)
  )
)
2022-05-04 01:25:53,285 (train:196) INFO: (ver: 1_21) (Steps: 10) train/loss = 1.3119.
2022-05-04 01:25:55,394 (train:196) INFO: (ver: 1_21) (Steps: 20) train/loss = 1.2470.
2022-05-04 01:25:57,077 (train:94) INFO: Epochs: 1 | Steps: 23
2022-05-04 01:26:01,551 (train:196) INFO: (ver: 1_21) (Steps: 30) train/loss = 1.1931.
…
